10000iter-weights.npy (npy, 2088 bytes, 1 tensors)

array f8 [245]
0	0xbfbd2f3f2649c7ed	-0.1140021770932262
1	0xbfbd3a9f25eb3143	-0.11417574573278437
2	0xbfbcdcd7621aa115	-0.11274477143399893
3	0xbfcd099310368c10	-0.2268546895184902
4	0xbfc0aef8247e5e5c	-0.13033963949122807
5	0xbfbecc22972bee9d	-0.12030235472405555
6	0xbfc5a6daab409010	-0.16915448533939115
7	0x3ffdcb0ce354b15d	1.8620728378401374
8	0x3fa3c7c2f6e1cb75	0.0386334349031107
9	0x3f98edcc382c2e5b	0.024344626358511295
10	0x3f98765189402bae	0.023888849260440707
11	0x0000000000000000	0.0
12	0x3f941b14ec99d262	0.019634558621378757
13	0x3f897941de50db4b	0.012438311192551807
14	0x3fad3cb9be8beacc	0.057103924284054836
15	0xbf9e274bf9c96ed3	-0.02944678031995702
16	0xbf8ae44827d05b92	-0.013130725588821144
17	0xbfc28c7580f6048a	-0.14491146847652586
18	0xbfa5dbe2f00f871f	-0.04269322567394184
19	0xbf9cb3bb03f6ecdf	-0.028029367558457415
20	0xbfa6e6e52b3e3c87	-0.044730340508174975
21	0xbfe39024187f625f	-0.6113453367680214
22	0xbfd72a916cf2f595	-0.3619731487231886
23	0xbfc3271f34676fc6	-0.14963140543738812
24	0xbfd70c8b0efcab49	-0.36014057601521593
25	0xbf92d7942d617a4e	-0.01840049292547468
26	0xbfd2e302bcbeface	-0.29510563308933235
27	0xbfe33214146d705e	-0.5998630904173401
28	0xbfea101ef73d6345	-0.8144678906347528
29	0xbfb58b7ef0fbe71f	-0.08415978797338795
30	0xbfc61a2fd9ba74ed	-0.17267416125552107
31	0xbfc1a7dc18468081	-0.1379351728946894
32	0xbfcd859df2d230a5	-0.23064016682144942
33	0xbfc3d390158032bb	-0.15489388513414845
34	0xbfe9a76eff0a0e79	-0.8016886693225863
35	0xbfc8675d092be304	-0.1906544012815844
36	0xbf9ec12f3fb4d6c5	-0.03003381563504239
37	0xbfc6d45c12e2d795	-0.17835570261166525
38	0xbfc9cdb45621daac	-0.20159010129619526
39	0xbfb935fd0bde229d	-0.09848004855860855
40	0xbfbb581e650f4f71	-0.10681333510666292
41	0xbfc3dc851dc55edc	-0.15516723588620251
42	0xbf6584ad9805ebaf	-0.0026267424111074615
43	0x3ff58e444084652d	1.3472330589486987
44	0x3f93d569336d3eed	0.019368785632933806
45	0xbf43f085f586e858	-0.0006085065934293794
46	0x3f3416f0a626c1ec	0.00030654311390335034
47	0x3fc0581fd4306073	0.1276893411711658
48	0x3fa52707784ba5a6	0.041313394007214385
49	0xbf231a4e3949e763	-0.0001457424629228112
50	0x3fb4d6c34da0696e	0.08140202183895948
51	0xbf9db722d5d27a17	-0.02901892118517865
52	0xbfbff521b594fd2c	-0.12483416255144125
53	0x3f68f0c1f8febb38	0.0030444897201599395
54	0x3f8897b108cb555a	0.012008078652267318
55	0xbf9b03b4d57e5210	-0.02638132622776551
56	0xbfe371a02e88aa0c	-0.6076203259338526
57	0xbfd6b3c5439e61ee	-0.3547223244036378
58	0xbfb80815cca72a19	-0.09387336965952676
59	0xbfd9a6af487a22a7	-0.400798626688394
60	0xbf8a38e12e7b2eba	-0.01280380175685224
61	0xbfd58cb25b51a4bf	-0.33671244542945183
62	0xbfe31096c4d40942	-0.5957750171949459
63	0xbfea0a74d060b9aa	-0.8137764043693114
64	0xbfc7f2b19046ea4d	-0.18709392113471993
65	0xbfc7b687d2789d50	-0.1852578904811062
66	0xbfba27d7dbe179b6	-0.10217045896704388
67	0xbfc5e1e9d11566c7	-0.17095682820472843
68	0xbfbe331b2bfb5d58	-0.1179673178079289
69	0xbfea6714bdf5e464	-0.8250831327596981
70	0xbfc41c1f88b92480	-0.15710825134218354
71	0xbfc45debfd66aeb3	-0.15911626694775335
72	0x3fc0142260fe10f0	0.12561444984397196
73	0xbfb97c97d4aa1899	-0.09955738965990903
74	0xbfbe842af656fe5a	-0.11920422090678909
75	0xbfc29dddc2c7f38d	-0.14544269572061488
76	0xbfc4c53ebb8a81a7	-0.16226944119717965
77	0x3f866e328b02c452	0.010952372424386212
78	0x3fa2205eae231370	0.035403212315521126
79	0x3ffc5948c34e536e	1.7717979077471813
80	0x3f9e21ec75eb027a	0.029426283547538713
81	0x3f9e815de8eb8d66	0.029790370312992386
82	0x3fa1c5fc0dfa1bb5	0.03471362753503319
83	0x3fac53ecde4cae3a	0.05532779897324898
84	0xbfab0639a817eb12	-0.05278186966821442
85	0xbfa691f2ffd45973	-0.04408225415152147
86	0xbf64227bcdbe90b0	-0.002457849315719761
87	0xbfba2c6f1af45fdd	-0.10224050911017409
88	0x3f9b8a4c40cf5fd0	0.02689475198334873
89	0x3f595808c40ef562	0.001546867905047954
90	0xbfaf30c0b29da83a	-0.06091882877701989
91	0xbfe3d3f4fc83a16a	-0.6196236545484173
92	0xbfd11eb27ae9f7f1	-0.2674986076671067
93	0xbfcd2cc291632924	-0.22792846774093178
94	0xbfd8bc622d4bc9ef	-0.38649801658098587
95	0x3f909ebca83fb38d	0.01623053337964424
96	0xbfd36688ccbce6d2	-0.3031332015412832
97	0xbfe3aa0ec42b56aa	-0.6145089942389934
98	0xbfe8ebdc0ef14427	-0.7787914554447796
99	0xbfbc075ce796be0d	-0.10948734907173492
100	0xbfc62d3fe31a3466	-0.17325590695364496
101	0xbfc6da0252c87c7a	-0.178528108998737
102	0xbfc55471665c1814	-0.16663949487718865
103	0xbfc8ddd3b4c71f80	-0.19426962210695464
104	0xbfe9a9e3d99e65fc	-0.8019885301939094
105	0xbfd1ed9b7847fe8a	-0.2801273989316334
106	0xbfca54921fdbd43a	-0.20570589595414096
107	0xbfcb41ad66a2fe15	-0.21294181357915024
108	0x3f986e03246a702f	0.023857163522379373
109	0xbfcb3e9344b9f551	-0.21284714561253762
110	0xbfca58cda8cfa003	-0.20583506338812194
111	0xbfd1e7cc365cb016	-0.27977280911250213
112	0x3f9d542be9dff2d6	0.02864140143354884
113	0x3fa1d2f75ce7427c	0.03481266984056661
114	0x3fa1a7b905338eac	0.034482747921882634
115	0x3ffcfd3b04c435b3	1.811823862666057
116	0x3fa19f7a4fd2a44f	0.03441984390639929
117	0x3fa1a805ed1f1962	0.03448503989743547
118	0x3f9f0068fa78d8fd	0.030275001800156954
119	0xbf996c6342ce7c53	-0.02482752890830071
120	0xbfb6368ebb3d7812	-0.08676998206416922
121	0xbfbeff82ed0543a8	-0.12108629500040868
122	0xbfc20b2bff4a0301	-0.1409659382370805
123	0xbfbf0b71cd9a8a8e	-0.1212683798753835
124	0xbfb62992c7b63e1a	-0.08657185912874646
125	0xbf990629689a55cb	-0.024437567719891178
126	0xbfe61ad99a6181cd	-0.6907775893451401
127	0xbfdff0361e21845c	-0.49903634016488296
128	0x3fdd4183d2f86ea9	0.4571237144716443
129	0xbff84109c8a7aae4	-1.5158784711917912
130	0x3fdd4f6c7d78de95	0.45797264340533533
131	0xbfe00004ac4dc6bf	-0.5000022282894959
132	0xbfe62bb9706b8799	-0.6928374477104057
133	0xbff35e02cdcc1ae2	-1.2104518927532628
134	0xbfcec852352837cc	-0.24048831553994743
135	0x3fc6ccd5e312108b	0.1781260832541459
136	0xbfdc5199ba9b0386	-0.4424804994887882
137	0x3fc6e3b35887a758	0.1788238699221505
138	0xbfceac12e95a5c0e	-0.239626277868155
139	0xbff351424725cb70	-1.207338598175479
140	0xbfc4ca10c2e60b21	-0.1624165488866192
141	0xbfc2a12ca19785e7	-0.14554365053395132
142	0xbfbe8ea6835d26b0	-0.11936417300344249
143	0xbfb9808cd8b66919	-0.099617770107589
144	0x3fc01898bfb244a4	0.12575063095258543
145	0xbfc45db349203cc9	-0.15910950728036813
146	0xbfc4183251475f99	-0.15698842018786932
147	0x3fac5582be1cafe0	0.05533989496902314
148	0x3fa1c63bafb25637	0.03471552390798787
149	0x3f9e7bd607593ddc	0.029769272039912184
150	0x3f9e1d56d3b795cc	0.029408795044124678
151	0x3ffc587eacb6b67b	1.77160518137262
152	0x3fa22074ea66ec48	0.03540387498238623
153	0x3f866c11d1828f82	0.010948313909757482
154	0xbfaf2c062550fbd3	-0.06088275151750335
155	0x3f58eeb38f7c86c0	0.0015217546005676236
156	0x3f9b8071b3eeddf9	0.026857163054698294
157	0xbfba2cae24199f5c	-0.10224426633214762
158	0xbf64605c07a2497f	-0.002487354036085409
159	0xbfa68aa8110bdbe9	-0.044026615219926964
160	0xbfab09b29f3a857d	-0.0528083629008149
161	0xbfe3a3ee796773df	-0.6137611743139323
162	0xbfd363dd5ce0abe7	-0.30297025747375844
163	0x3f905269da606c58	0.015939382508900785
164	0xbfd8b9acb09b253f	-0.3863326763790446
165	0xbfcd27c75c99536e	-0.22777645131523222
166	0xbfd122fb302a898a	-0.26776008323408773
167	0xbfe3d79ee32c5976	-0.6200708806016297
168	0xbfe9ad97adf05732	-0.8024404904597076
169	0xbfc8e8a7ec5c7670	-0.19460009614060736
170	0xbfc5612dcc0db01d	-0.16702816451595562
171	0xbfc6dae5fb7abe9f	-0.1785552480628114
172	0xbfc622002d22bf3e	-0.17291261867421243
173	0xbfbbed4ee408d0a4	-0.10908978526350893
174	0xbfe8e63e2092dd65	-0.7781057964520356
175	0xbfc3de728f2c81b5	-0.15522605887328003
176	0xbfbb590f29acf932	-0.10682768599960893
177	0xbfb931b2ee3849f0	-0.09841459575572009
178	0xbfc9ccd5ab43990f	-0.20156355726721428
179	0xbfc6d1b14e9e7a8a	-0.17827431048222692
180	0xbf9e95c2a5002dd5	-0.02986816532215449
181	0xbfc863916ac0b275	-0.1905385752919703
182	0x3fa5243a47ae4c48	0.04129202008257288
183	0x3fc057fca2d14042	0.1276851458555957
184	0x3f340b4b0cb386e2	0.0003058489061925474
185	0xbf43baaa3082b574	-0.0006020861628905209
186	0x3f93d7e7bfd04086	0.01937830074535942
187	0x3ff58ddddf5fc899	1.347135422282497
188	0xbf6592b6e13e1048	-0.002633435427869233
189	0xbf9ae2874973b7c9	-0.026254762514262873
190	0x3f88af33b1d3163a	0.012052921165728415
191	0x3f698177c40bca4b	0.003113492887103752
192	0xbfbfeca632dcf157	-0.12470473043226114
193	0xbf9db44605329089	-0.02900800139163143
194	0x3fb4e03d90466f1b	0.08154663822500334
195	0xbf3a3f9e948d53c4	-0.0004005205305948579
196	0xbfe30a9eec48fef8	-0.5950464835113669
197	0xbfd589cf1f5744a3	-0.3365361982406034
198	0xbf8ab20e8a18a9c7	-0.013034928883901465
199	0xbfd9a7a47114e660	-0.400857077056207
200	0xbfb81105299f185b	-0.09400970712803895
201	0xbfd6b821eee4a7fe	-0.3549885590497296
202	0xbfe372fce80600b9	-0.6077866107662181
203	0xbfea696b9a4a74e0	-0.8253686917775234
204	0xbfbe59742782a4c2	-0.1185524555645712
205	0xbfc5ea4126225c81	-0.17121137964270264
206	0xbfba48b9fec482c5	-0.10267221898949248
207	0xbfc7b0a41acd501c	-0.18507815655414184
208	0xbfc7e8117e92894b	-0.18676966362279254
209	0xbfea00e07b433b99	-0.8126070411179739
210	0xbfc5b54c6ede2050	-0.1695952931734177
211	0xbfbed412b3aa92ea	-0.12042347799667721
212	0xbfc0b51dbff71fca	-0.1305272281008441
213	0xbfcd0cc85476e438	-0.22695259212722063
214	0xbfbcd88fe2073bf2	-0.11267947452800778
215	0xbfbd3c44832d636b	-0.11420086100168951
216	0xbfbd33ea50b8c322	-0.11407341452355671
217	0x3f89756b27d564a3	0.01243098941147231
218	0x3f941bcfda4afcf7	0.01963734407285941
219	0x0000000000000000	0.0
220	0x3f9876b205c5a25b	0.023890287020011374
221	0x3f98ec7b718c83a0	0.024339608006929248
222	0x3fa3c4c79bc24c2a	0.038610685123011315
223	0x3ffdc9b32180b488	1.8617430981351237
224	0xbfa6ddfeddc778cd	-0.044662441799788156
225	0xbf9cb27380e69cbb	-0.02802448724983429
226	0xbfa5d9894e072ad4	-0.042675295615102776
227	0xbfc285b96249cbc2	-0.14470593737823206
228	0xbf8af2f215bb43fb	-0.013158694542115148
229	0xbf9e21991cfefd57	-0.029425041575220714
230	0x3fad3d75ec8d124a	0.057109532476293426
231	0xbfe32da062465c9f	-0.5993196410589866
232	0xbfd2dfbc4c6586e4	-0.29490573368648954
233	0xbf92c19b1c4768b8	-0.018316672898301717
234	0xbfd70ee2ee304fc5	-0.3602835966169063
235	0xbfc327d1dd268248	-0.1496527032695829
236	0xbfd72dda2a042d1a	-0.3621735964122351
237	0xbfe39243c830bff7	-0.6116045865983314
238	0xbfe9a7443de5df14	-0.8016682824081465
239	0xbfc3dd4c9a3184de	-0.15519101647354366
240	0xbfcd8a710d8c815c	-0.23078740274014364
241	0xbfc1ab124e3dd523	-0.1380331880606401
242	0xbfc613a82eed6f69	-0.17247488299733085
243	0xbfb58078243713de	-0.08399153598936901
244	0xbfea0d30fc7f82ef	-0.8141102725604393
