long_weights.npy (npy, 2088 bytes, 1 tensors)

array f8 [245]
0	0xbfc16875fcdfedb4	-0.13600039336584546
1	0xbfc7dba921f7b1f1	-0.1863910117966863
2	0xbfc35c52d8b63b09	-0.15125499326355676
3	0x3f966093e59f942a	0.021852789774033855
4	0xbfa7bb4254446c70	-0.046350548540623815
5	0xbfade3389c0a7307	-0.05837418465418947
6	0xbfc3439dbb53dc5b	-0.15050098082403704
7	0x3fffab8a4e017eb8	1.9793799445250624
8	0x3fa9f0800181b86b	0.05066299456017095
9	0x3f86d5788bcf5fd7	0.011149350897468864
10	0x3f9aac67d1697843	0.026048299938672647
11	0x3f9ce271977bc9fb	0.02820756423074931
12	0x3f8cae8631803f9b	0.014004753480577217
13	0x3fa8426219ee8b49	0.04738146368551683
14	0x3f83a7f73774b9f0	0.009597712879068049
15	0xbfb10d4bd728d3c6	-0.0666091347018912
16	0xbfa8c5588a23a8dc	-0.04838062940855689
17	0xbfc302df695467ab	-0.1485251678757867
18	0xbfb95faa45c64186	-0.09911598399617647
19	0xbfb0822ff18d5c48	-0.06448650023718117
20	0xbf9ebd2ca28f6329	-0.03001851789653923
21	0xbfea8a4924da2b70	-0.8293805808801675
22	0xbfd81f6ea0611665	-0.3769184652522653
23	0xbfcd3b589b345b27	-0.22837359979959013
24	0xbfdc16be41ec04fc	-0.4388881343621305
25	0xbfc87afd86da2e6c	-0.19125336727698838
26	0xbfd8a98bffcb733a	-0.3853483198161488
27	0xbfea8f7b68e9e10e	-0.8300149010747491
28	0xbfeedcd0bde91c00	-0.9644550046149334
29	0xbfd3176a14ef4ceb	-0.29830410046015626
30	0xbfcfc4f562c50c58	-0.24819819758167472
31	0xbfcc98d0d0d06dff	-0.2234135646439057
32	0xbfcf3311f5d0127d	-0.24374603750779392
33	0xbfd46b97f656ee6c	-0.31906699234580205
34	0xbfef74aecec4e06a	-0.982993511052894
35	0xbfc57de5fa9dcc4c	-0.1679046128952869
36	0xbfac4a7f406ed701	-0.055255867591240466
37	0xbf795bf1cf8ad4b6	-0.0061912008028929735
38	0xbfcac3483b0eaaec	-0.20908453830391893
39	0xbfc562d763542673	-0.16707889890703917
40	0xbfbc45f23367042d	-0.11044229273740376
41	0xbfc9ae24374cda6f	-0.2006268758793399
42	0x3f846a7c5abb690d	0.009968730467722975
43	0x3ff510e816fc0421	1.3166275880651102
44	0x3f6a07eb93134172	0.003177604776830539
45	0x3f9d35293b5f7933	0.028523105858647212
46	0xbf5afbca6082e756	-0.0016469456041207828
47	0x3fb1b47a3771e9f2	0.06916011670720204
48	0x3f8e1f8d6c0dad37	0.014708618984249895
49	0xbf8ee6b1a3392071	-0.015088451188731452
50	0x3fb97eeafe31683f	0.09959286409267153
51	0x3f9324588022ed44	0.018693335362269595
52	0xbfb39d2f282c8ab1	-0.07661719065485319
53	0xbf85d17e57a1d8a7	-0.010653483437846068
54	0x3f815ca7349294e8	0.008477503101242026
55	0xbfa2b60def54ddee	-0.03654521509673346
56	0xbfea4bdbb343f74a	-0.8217600346831457
57	0xbfda636d6c568c13	-0.4123185689915669
58	0xbfc7ee0c4f01b672	-0.18695215089558165
59	0xbfdd703dd287e44e	-0.4599756771054374
60	0xbfc607f892269cbd	-0.17211825500746683
61	0xbfd9e32a2c8a1cca	-0.40449003552971574
62	0xbfe9fc5d975d72a5	-0.8120563465450529
63	0xbfeef20c9e5f53af	-0.9670470326624264
64	0xbfd4d65b8b15b3dd	-0.3255833490609897
65	0xbfcb12617b3912c3	-0.21149843708749047
66	0xbfcfb1f3d64376dc	-0.24761817895971816
67	0xbfcc878e575dafa4	-0.22288684144893722
68	0xbfd4037dba28f974	-0.31271308116620067
69	0xbfef6f332b38aea4	-0.982324203888727
70	0xbfca2c7117a4fc90	-0.20448125509753767
71	0xbfcabd4426215fbf	-0.20890094625315034
72	0x3fb3c6eefc13948d	0.0772542348309619
73	0xbfc6a3e34bfdc9c3	-0.1768764611293375
74	0xbfae64b2f6ca61c5	-0.05936202299671182
75	0xbfb1ea5f2f3256fd	-0.0699824800707027
76	0xbfbb6f806825555f	-0.10717012922881029
77	0x3f9c3479bf4a60c6	0.027543928432891794
78	0x3f92c7e0626ce17b	0.01834059334507419
79	0x3ffafdfb4fef7d71	1.6870072481613898
80	0x3f99e0a37a57ac64	0.025270990698043852
81	0x3fb3f6d25b44da30	0.0779849503349872
82	0x3fb44e73b31ae41c	0.07932208178216665
83	0x3fbf778957624cd2	0.12291773208044113
84	0xbf973a8f73111a3b	-0.022684327505226625
85	0xbfb162e733fce6e9	-0.06791539210544396
86	0x3fc1aceefdcde892	0.13809001343526411
87	0xbfb5c9ebe487a26d	-0.0851123269018303
88	0x3f83f2f23dcff5e6	0.009740726958621115
89	0xbfb1ba6349a6cae6	-0.06925030277379171
90	0xbfa6bc31d068beb7	-0.04440456074769144
91	0xbfea4c35fc5d7cf0	-0.8218030861861774
92	0xbfd869972e67ff78	-0.381444735830875
93	0xbfc8e02f7fb1f183	-0.19434159979926954
94	0xbfdca1a0fa2400d5	-0.44736504009052896
95	0xbfc4a43231f67a76	-0.16126086654272215
96	0xbfd975dee9c9d3a4	-0.39781925993821177
97	0xbfea43eba62b7cbc	-0.8207910771851838
98	0xbfef24c788566ca6	-0.973239675793043
99	0xbfd3595451ff0daa	-0.30232723243190185
100	0xbfcf3fabac108511	-0.24413057233417892
101	0xbfcab82f197e66b4	-0.20874584908306348
102	0xbfcbb80d9f655124	-0.2165543583202033
103	0xbfd37458ce72e71b	-0.3039762512304251
104	0xbfef3a2d92aec8a5	-0.9758518090150302
105	0xbfc9d5407b2af677	-0.20182043088964338
106	0xbfc1a34b892c4a98	-0.13779586980725322
107	0xbfc1e609f8355e63	-0.1398327314334323
108	0xbf54a82879f05bdf	-0.0012607951428031878
109	0xbfc1d05e7fcd67e7	-0.13917142143583236
110	0xbfc1c8208caa02de	-0.13891989582409442
111	0xbfc9c824b58d5b7a	-0.20142039170124432
112	0x3f975d140df05f44	0.02281600318028089
113	0x3fb4080c2a169e06	0.07824779536769463
114	0x3fc3e65305c78874	0.1554664400310376
115	0x3fffd06ac532618d	1.9883830740928687
116	0x3fc3bc28764a6bba	0.1541796281424846
117	0x3fb412284afa8e8a	0.07840205984626372
118	0x3f975c3ef280ee04	0.02281282763600069
119	0xbfa372ed08fc471c	-0.037986190173013606
120	0xbfb1d453f6a51df0	-0.06964611789327768
121	0xbf9c5c7bd342d676	-0.027696547288277938
122	0x3fb214265eeb4680	0.07061996285781369
123	0xbf9c517371b93f93	-0.027654460731639196
124	0xbfb1c399bcbf3ba5	-0.06939087732392453
125	0xbfa333f15d018768	-0.03750566730810939
126	0xbfe74ab34fb4ac9c	-0.7278687054398634
127	0xbfe166fa7ee3213f	-0.5438206175104269
128	0x3fc6ac43355c3915	0.17713203530770075
129	0xbfeff33be10904e1	-0.9984416384906148
130	0x3fc6b06a09de8244	0.1772587345303852
131	0xbfe1728cc63311e8	-0.5452331420024707
132	0xbfe7606e96c540a0	-0.7305214829193751
133	0xbff0ec914f972d0c	-1.0577557667737123
134	0xbfd6e7d863810802	-0.3579007121771839
135	0xbf91b2079f39c5b8	-0.0172806921895636
136	0xbfd53dddcbfbc572	-0.33190102501165264
137	0xbf914bf1ab91437a	-0.016891265961308723
138	0xbfd6c7060b46a75a	-0.35589743710680966
139	0xbff0dca494af8a50	-1.0538678939853021
140	0xbfbb7cc52c7f66fa	-0.10737259231919075
141	0xbfb1f4df55696e69	-0.07014270625352882
142	0xbfae71248f2ced98	-0.05945696113345916
143	0xbfc6a40b8b232b6c	-0.17688125890557715
144	0x3fb3d01e9f0c067a	0.07739440329535255
145	0xbfcab7b4e8cfa61a	-0.20873128288012383
146	0xbfca24b36c7433a6	-0.20424502177811837
147	0x3fbf788eeea7162a	0.12293332411271565
148	0x3fb44f445afe250e	0.07933451863768345
149	0x3fb3f2088bf1b835	0.07791188637358533
150	0x3f99e6cd8a84eab2	0.02529450567201747
151	0x3ffafda9095ad1b9	1.686928783933679
152	0x3f92c8f30fc262ed	0.018344686352608375
153	0x3f9c2fa10b77dff1	0.027525440525977222
154	0xbfa6b9c1a0d2cecd	-0.04438595855881786
155	0xbfb1bb4d0a960aef	-0.06926423557710469
156	0x3f84465944a59821	0.00989980450385636
157	0xbfb5c79d3f574f68	-0.08507712170040593
158	0x3fc1aabe9e577231	0.1380232117798115
159	0xbfb1638c30920f19	-0.06792522607616681
160	0xbf971c8d49eb2894	-0.022569854389793934
161	0xbfea3f9236ebb614	-0.8202601502104607
162	0xbfd970f6c0f477f6	-0.3975197681737649
163	0xbfc4a6a404600db7	-0.1613354703296019
164	0xbfdca017afdf5362	-0.4472712724212241
165	0xbfc8dd348da2e2e6	-0.19425064960321164
166	0xbfd86f1b6d71fed2	-0.3817814415742592
167	0xbfea50dd98a5e0f2	-0.8223712903409519
168	0xbfef39764b660876	-0.9757644150379423
169	0xbfd379b8f1df1911	-0.30430434818517066
170	0xbfcbbb15d22b76bf	-0.2166468883723862
171	0xbfcabaf7027f1af1	-0.2088307153882947
172	0xbfcf3bac57a46e63	-0.24400858191880834
173	0xbfd3536ee2c4219c	-0.3019673552048745
174	0xbfef25028ec6f606	-0.9732678211800596
175	0xbfc9b63bc01328d6	-0.20087382200865161
176	0xbfbc5a04c1122307	-0.11074857438701367
177	0xbfc565684f74eb91	-0.16715721015665655
178	0xbfcac1d433f34b85	-0.20904018913878644
179	0xbf78e783ab736fba	-0.006080164275058248
180	0xbfac471f99cd5325	-0.05523012878862791
181	0xbfc5786a387a26bb	-0.16773727185891638
182	0x3f8e1f109f03fd79	0.014707689144869406
183	0x3fb1b0d65a1efd3b	0.06910457325192436
184	0xbf5b1d1316a93d71	-0.001654881135113442
185	0x3f9d30a1d70681d1	0.028505829571828848
186	0x3f6a00ccc19483ee	0.003174209513091323
187	0x3ff51011de8ee3bb	1.316423291557142
188	0x3f84673570d80ae7	0.009962480074141534
189	0xbfa2b5b58332eef9	-0.03654257990407745
190	0x3f811cfc0632a333	0.008356064738408974
191	0xbf85b5900c7f116e	-0.010600209599836954
192	0xbfb3987a57b2c921	-0.0765453781230332
193	0x3f9311ff750f591d	0.018623343963406137
194	0x3fb97eb4e2588246	0.0995896389581584
195	0xbf8ef911117cc19d	-0.015123494478388727
196	0xbfe9f661e5ebad29	-0.8113259783398564
197	0xbfd9dbada882e8b0	-0.40403310257137104
198	0xbfc6099174b81457	-0.17216699790165776
199	0xbfdd6f378e42a3a5	-0.4599131478558383
200	0xbfc7ee5888726cde	-0.18696123754930388
201	0xbfda691a9217e217	-0.412665026349289
202	0xbfea4ed50dcee55c	-0.8221230764094503
203	0xbfef6e3ad07c5db9	-0.9822057792652493
204	0xbfd40672d89444a6	-0.3128935923605901
205	0xbfcc8bd0538afd06	-0.2230167777943068
206	0xbfcfb24b4d583fb5	-0.24762860561940916
207	0xbfcb15925693bac3	-0.2115958140124886
208	0xbfd4d12c4e930882	-0.3252669112517951
209	0xbfeeee3b93415687	-0.9665811420515674
210	0xbfc34f8f564dcfa4	-0.15086547578868903
211	0xbfadfa12f111b867	-0.05854853813876631
212	0xbfa7c9e9943c2ac1	-0.046462344498726
213	0x3f963164670574c9	0.02167279127876468
214	0xbfc3598a9d9b4d8d	-0.1511700887263995
215	0xbfc7d7b2f40f7590	-0.18627011219988932
216	0xbfc168a019990537	-0.13600541353120274
217	0x3fa8434d662d1364	0.047388476107278504
218	0x3f8cae3235f1edf6	0.01400412776114644
219	0x3f9ce64950c840b4	0.028222222858005977
220	0x3f9ab66c255099a2	0.026086511399762487
221	0x3f86d2e5337d6243	0.011144438394397166
222	0x3fa9ee2d019819d5	0.05064526218852775
223	0x3fffaa98614b96fe	1.9791492271992293
224	0xbf9eb7c09a77ad7a	-0.02999783461374992
225	0xbfb0762ae43829ea	-0.06430309364092293
226	0xbfb95caba273b952	-0.09907028881182114
227	0xbfc2fd073c6f8e20	-0.14834680987324678
228	0xbfa8c557b970a632	-0.04838060511276544
229	0xbfb1052b5831cb0e	-0.06648512747942112
230	0x3f83e0562f0f08c2	0.009705231963270559
231	0xbfea8a217003eeb3	-0.8293616473960895
232	0xbfd8a5870ed8a0ba	-0.38510300111603224
233	0xbfc878a9b559bf08	-0.1911823401928745
234	0xbfdc18e674513614	-0.4390197883520568
235	0xbfcd3cd47765fdc5	-0.22841888265609903
236	0xbfd822e6586c29ac	-0.37713011393557383
237	0xbfea8fc5e978e40e	-0.8300504264835824
238	0xbfef73e9a4fdb790	-0.9828994963152002
239	0xbfd46f757f72d2a4	-0.3193029160131948
240	0xbfcf359f730d623c	-0.24382393949305647
241	0xbfcc98969d71fee8	-0.22340662658461174
242	0xbfcfc215361f8ae4	-0.24811043875441563
243	0xbfd314dd34617a49	-0.29814844241437705
244	0xbfeeddcb173d3df2	-0.9645743802920477
