nice_weights.npy (npy, 2088 bytes, 1 tensors)

array f8 [245]
000000 ea 2f f0 08 4f 18 a7 bf 1b df d3 94 12 31 b3 bf
       -0.04510733589276568 -0.07496753819929973
000010 70 54 23 9d f2 08 b3 bf 99 45 35 36 eb 1d bb bf
       -0.074355281223079 -0.10592527459563995
000020 e8 9c d2 1b ad 5e b4 bf c3 26 72 8e 4d f6 b5 bf
       -0.07956964425339985 -0.08578953483279421
000030 b2 72 fd fe 0e cc ad bf a1 6e 19 ea 72 e1 c7 3f
       -0.05819746840163499 0.18656765394813582
000040 00 00 00 00 00 00 00 00 94 50 85 17 2e 45 84 bf
       0.0 -0.009897575466915755
000050 07 1d 44 5b 41 e7 47 3f 00 00 00 00 00 00 00 00
       0.0007294720767569159 0.0
000060 00 00 00 00 00 00 00 00 00 00 00 00 00 00 00 00
       0.0 0.0
000070 56 b0 a5 be cc 50 b2 bf e4 68 d7 d7 28 63 b5 bf
       -0.07154540686104957 -0.08354430455748091
000080 fc 28 30 ae bb b5 a4 bf 83 82 76 2d 62 b8 b3 bf
       -0.04044901372260942 -0.077032219027851
000090 5a db 48 29 73 ff ab bf 59 de ba 2e 4e 1c c0 bf
       -0.054683302678702986 -0.12586381227241608
0000a0 39 ce 98 34 dc 5e 58 bf cf 3f 53 2c 68 77 cd bf
       -0.0014874601787483578 -0.23020651020351443
0000b0 d9 c7 9c fd ef 1a c9 bf a9 55 b4 24 fd 9a c6 bf
       -0.19613456614894068 -0.17660488407333944
0000c0 a1 fd d2 f7 ad 02 d3 bf 31 76 34 b9 3e 59 c6 bf
       -0.29703854753094033 -0.17459854167184255
0000d0 23 bc 4f cc 10 bf c5 bf c0 40 ff c3 cf 7a cd bf
       -0.16989335991044738 -0.2303104121224404
0000e0 ab f3 f6 4d 0c 48 d5 bf f8 ad 31 65 54 fa c1 bf
       -0.332522464883193 -0.1404519552337289
0000f0 17 ce 2d 74 4e 9f c4 bf b5 be a6 f2 bf 58 c7 bf
       -0.16111164734648817 -0.18239592884264302
000100 a5 0d 3f 56 7b 8c c6 bf 4d 35 46 00 f2 c0 c4 bf
       -0.17616216384167874 -0.16213822377577927
000110 45 d6 49 eb f3 7a d4 bf 75 72 9f ba d3 f5 ad bf
       -0.3200044439066441 -0.05851613667593806
000120 14 eb 2c ed b6 73 a9 bf a8 4c 06 89 8a f3 b1 bf
       -0.04971095700462605 -0.07012239308669399
000130 b7 5e b1 de a9 0c bf bf f3 40 08 1e fa c2 b4 bf
       -0.12128698050343699 -0.08110011323174486
000140 ba f1 fd 81 67 1b b4 bf 51 1e 01 b6 aa 05 b2 bf
       -0.07854315684921334 -0.07039896911111866
000150 35 44 cc 0e ec d3 87 3f 58 ad 39 c5 5d dd cc 3f
       0.011634678079220343 0.2255055630697409
000160 00 00 00 00 00 00 00 00 00 00 00 00 00 00 00 00
       0.0 0.0
000170 cd cd 96 59 97 b9 95 3f 00 00 00 00 00 00 00 00
       0.021215786784251556 0.0
000180 48 7d 48 24 9e 1c 94 3f 7f a6 c6 d6 1e 69 a1 bf
       0.019640418018864098 -0.034005130498667484
000190 90 d6 e0 5b 53 17 b6 bf f0 0f 85 b8 91 ad 6d bf
       -0.08629342072603152 -0.003622803316973837
0001a0 b0 7f 11 76 20 7f b0 bf 1d c1 df 28 cb eb a7 bf
       -0.06443980104950131 -0.04672083734465302
0001b0 31 78 79 21 c6 9e bb bf e5 a0 e4 3d f0 39 6b bf
       -0.10789144818542763 -0.0033235256406848207
0001c0 4f 36 f7 27 4f e3 ce bf f6 d0 d8 e1 8b 5a c7 bf
       -0.24131192637871599 -0.18245075729067367
0001d0 bb c4 72 15 38 7c c7 bf 54 ab 66 91 26 e8 d3 bf
       -0.18347836539536452 -0.31104435157128774
0001e0 cb 70 33 1d 17 fd c4 bf 9f e9 33 2e 21 50 c4 bf
       -0.1639737026770319 -0.15869536167140283
0001f0 dc 30 3a 40 7b 44 cf bf 18 5d 35 4c 1e d1 d1 bf
       -0.24427738796328569 -0.27838857118827454
000200 29 43 fb 26 dd 96 c6 bf e1 fc ac 92 65 e3 c5 bf
       -0.17647900012391318 -0.17100209867383057
000210 11 52 2c 1c 64 58 c8 bf eb d5 cb ce 48 7e c8 bf
       -0.19019748092308977 -0.19135389420959767
000220 ec f4 2a 7b 87 54 c7 bf a4 09 55 12 30 ea d2 bf
       -0.18226712717106552 -0.2955436877274684
000230 9e f6 42 a8 d2 84 a6 bf 4e fc 43 17 fc f9 b6 bf
       -0.04398210815405189 -0.08975196426398321
000240 b1 ef 86 2e 51 9b 8e 3f 24 ac 32 55 83 08 bd bf
       0.01494468138923097 -0.11341114835765659
000250 5f 1b dc 4a 1e d2 b2 bf 72 9c 97 b8 fa 5f be bf
       -0.07351865127212197 -0.11865202910085929
000260 18 1c 83 b2 71 27 ae bf f1 10 4f f1 c5 7e 94 3f
       -0.05889468483069765 0.020014851430247785
000270 00 00 00 00 00 00 00 00 de cc 59 cc 60 6b c4 3f
       0.0 0.1595269201094202
000280 00 00 00 00 00 00 00 00 00 00 00 00 00 00 00 00
       0.0 0.0
000290 00 00 00 00 00 00 00 00 34 2e 8a 88 5e f0 9e 3f
       0.0 0.03021381100056271
0002a0 5a 03 67 df 28 28 9a bf f2 3f 5a b2 42 53 b8 bf
       -0.025543821940803603 -0.09502045492467895
0002b0 50 25 ae d7 3a 45 56 bf 57 98 37 fd 85 3b b5 bf
       -0.001359279120807539 -0.0829395049291589
0002c0 4b f3 4e 9b b8 11 a6 bf 6b 22 64 a9 fe eb bb bf
       -0.04310395141462794 -0.10906974444891097
0002d0 03 84 ba 10 4d f0 82 bf 65 b0 44 9d 7c d9 cd bf
       -0.009247400353446627 -0.23319966963879604
0002e0 34 00 db 83 7f 3e c7 bf 11 d6 16 a5 a1 7b c8 bf
       -0.1815947908235117 -0.19127293168064388
0002f0 d8 bc d5 2f 3b d9 d3 bf 0c 94 9d 85 d1 3b c4 bf
       -0.3101337401521511 -0.1580755140704756
000300 13 6e 43 1e 5d 19 c4 bf 86 b9 b9 f9 11 66 cd bf
       -0.15702404000954626 -0.22967743581416417
000310 02 a7 3c 86 9b 5a d2 bf 46 9c bd 27 bf fd be bf
       -0.2867802439601378 -0.1210593673728094
000320 94 35 e4 6e 36 19 cc bf 16 83 0a dc 36 0b c6 bf
       -0.21951942839261263 -0.17221723312561527
000330 7d fc b9 e8 a0 3f ca bf 10 d8 ce a4 34 04 c4 bf
       -0.20506678927992886 -0.1563783459402548
000340 28 cd 98 a7 7d 32 d3 bf 7e b5 8e a1 df c8 a5 bf
       -0.2999567162216459 -0.04254816863190579
000350 97 b8 77 48 52 50 b9 bf cd 98 67 ac bf ff b7 bf
       -0.09888185757856359 -0.09374616583918112
000360 ca f5 cf 73 22 f3 b6 bf 34 ed cf ca 29 e7 b7 bf
       -0.0896474392647725 -0.09337102128477143
000370 79 0f cb 54 52 dd b8 bf 6b cb 8a 32 f8 41 a6 bf
       -0.09712709970614054 -0.04347205750436597
000380 cc 11 66 8f 31 39 4a 3f 18 ee aa c3 b3 f3 a5 3f
       0.0008002750389982049 0.04287492526551889
000390 e4 37 53 8b 1f 04 4a 3f 7d 76 e5 72 85 0d f1 3f
       0.0007939485573389385 1.0658010948313
0003a0 cc 11 66 8f 31 39 4a 3f b1 c3 b9 8e fe b9 a6 3f
       0.0008002750389982049 0.0443877743936193
0003b0 e4 37 53 8b 1f 04 4a 3f fe 7f 74 f8 f9 f5 87 bf
       0.0007939485573389385 -0.011699631590602163
0003c0 a0 2a 1c b0 42 67 b8 bf 8c 53 09 f5 43 85 9b bf
       -0.09532563018380324 -0.026875554877125604
0003d0 3b 70 a1 0d b6 b2 b2 bf bc 88 4e f7 2f 45 9b bf
       -0.07303941567209986 -0.026631116361053073
0003e0 95 ac d1 61 a0 64 b8 bf 1c 17 c1 f2 0a 4e 88 bf
       -0.09528543842468402 -0.011867604764244137
0003f0 ad 60 fa fa e8 ef cc bf 72 58 a6 50 03 83 ca bf
       -0.22607147459780688 -0.20712319791772732
000400 c3 1a fb a3 34 53 b2 bf 47 eb 21 28 59 3a da bf
       -0.07158211711348898 -0.4098112956923398
000410 d9 91 c1 f3 67 7c b2 bf 74 11 0a c3 0d 8e ca bf
       -0.0722107858760589 -0.2074601366367791
000420 63 70 5b 51 c3 0d cd bf 46 1d d8 81 f7 af d5 bf
       -0.22698251221197827 -0.33886516265961963
000430 eb 11 af 1d be 91 be bf 03 c5 32 38 ac d6 c1 bf
       -0.11941135620788372 -0.13936379188593415
000440 f5 0a 41 b2 5f e4 cc bf 98 bd b6 4a 1e d4 c1 bf
       -0.22571941570102863 -0.139285837632525
000450 71 8e 54 27 fa b3 be bf a8 74 18 59 a4 ac d5 bf
       -0.11993373356068006 -0.3386622304986511
000460 7e 99 43 69 06 28 ae bf 94 c7 8e ef db 60 be bf
       -0.05889911684953385 -0.11866545294358694
000470 99 60 dd 79 6a d2 b2 bf 2a a6 ce 19 b0 08 bd bf
       -0.07352319216932059 -0.1134138167386928
000480 be 78 00 70 e9 3c 8e 3f da 85 27 8d 49 f9 b6 bf
       0.014764617662930465 -0.08974132248069769
000490 2c 61 1a dd c4 82 a6 bf 9d 64 78 07 ae ef 9e 3f
       -0.043966438284032655 0.030211180883359934
0004a0 00 00 00 00 00 00 00 00 00 00 00 00 00 00 00 00
       0.0 0.0
0004b0 00 00 00 00 00 00 00 00 2f c3 85 27 67 6b c4 3f
       0.0 0.1595276778203014
0004c0 00 00 00 00 00 00 00 00 b1 9f 5d 62 07 7f 94 3f
       0.0 0.020015826586501088
0004d0 6c c2 a3 61 4c e5 82 bf f4 a0 6b 8c 91 eb bb bf
       -0.009226414422728278 -0.1090632407973578
0004e0 88 37 a2 4d b5 0f a6 bf 3e f0 9d d5 9c 3b b5 bf
       -0.04308859417606842 -0.08294086661584374
0004f0 ac 45 af f3 75 74 56 bf 0c 71 66 a9 f5 54 b8 bf
       -0.0013705398439366285 -0.09504638086076883
000500 66 56 12 79 0b 29 9a bf 3f 2c 10 91 73 61 cd bf
       -0.02554719854796019 -0.22953648169672822
000510 13 e7 ec 53 dc 16 c4 bf a7 78 53 cd dc 37 c4 bf
       -0.1569476518432614 -0.15795478845297348
000520 9b b1 47 35 9d d8 d3 bf 22 d3 68 1a 56 81 c8 bf
       -0.3100960750878358 -0.19144703187489492
000530 12 e7 0d 47 05 40 c7 bf 05 b4 97 8f 51 dd cd bf
       -0.18164125413368787 -0.23331660758358921
000540 d3 6d bc d8 23 30 d3 bf 31 0b 30 20 4d 02 c4 bf
       -0.2998132340014454 -0.15632022926009762
000550 bd 6e a7 f3 70 41 ca bf e6 c6 60 28 c0 0b c6 bf
       -0.20512210747880558 -0.17223360034545648
000560 1c 6f 77 77 98 15 cc bf e5 4c 37 90 01 04 bf bf
       -0.21940904458357913 -0.12115487833880285
000570 d7 04 9b 72 5a 5c d2 bf 0c 7b 0b c1 1e 06 b2 bf
       -0.28688679878184814 -0.07040588582047408
000580 4a 0b 2e 22 3f 1b b4 bf d2 ae 88 b8 0d c3 b4 bf
       -0.0785407503554271 -0.08110128169272038
000590 49 52 66 c4 8c 0c bf bf 4f 5c a8 b4 18 f2 b1 bf
       -0.1212852458468855 -0.07010034952723852
0005a0 59 f5 f8 1b 1e 76 a9 bf 84 c2 a4 d0 77 f5 ad bf
       -0.04972929088078599 -0.05851339742583142
0005b0 bb 85 c6 22 cd 1c 94 3f 00 00 00 00 00 00 00 00
       0.019641118285681474 0.0
0005c0 c2 65 27 2e 24 b3 95 3f 00 00 00 00 00 00 00 00
       0.021191182438860208 0.0
0005d0 00 00 00 00 00 00 00 00 09 f3 3f 29 96 dc cc 3f
       0.0 0.2254817677893686
0005e0 ba a8 43 8e f6 d3 87 3f 23 f4 3c 04 57 2f 6b bf
       0.011634756294786153 -0.0033184718648997676
0005f0 d3 b7 9a ad e4 9f bb bf 8b ea b1 0d 55 ea a7 bf
       -0.1079085277403629 -0.04670968811202155
000600 5e 94 19 fe df 7d b0 bf 98 50 06 00 f1 35 6e bf
       -0.06442069963084537 -0.0036878306420452082
000610 8c b5 45 da 33 16 b6 bf a8 61 4c 6b f4 68 a1 bf
       -0.08627628401673898 -0.034003866289086304
000620 34 36 e0 cb 8b 40 cf bf df 05 3e 63 0d 4e c4 bf
       -0.24415729002832764 -0.15863196702780066
000630 0c 55 90 98 9c f6 c4 bf d6 e0 ea 7f 3f e8 d3 bf
       -0.16377599191097436 -0.3110502957529325
000640 88 66 37 ee 63 7f c7 bf b6 9c 96 49 cc 5b c7 bf
       -0.18357514506969985 -0.18248895257167924
000650 ef 59 c1 58 3e e8 ce bf ec d0 d7 cc f8 e7 d2 bf
       -0.2414625104308494 -0.2954084396763068
000660 7a 4f 2d 9f 06 52 c7 bf d9 8a a9 a9 7a 7e c8 bf
       -0.18219073078455122 -0.19135983738222853
000670 28 5b 0a e5 53 55 c8 bf a7 b1 b5 84 c5 e2 c5 bf
       -0.1901039951669301 -0.1709830186840808
000680 6c 03 62 05 12 99 c6 bf 12 b0 ce 8a c2 d3 d1 bf
       -0.17654633772692863 -0.27854980044753674
000690 08 ea 15 4b f6 cc ad bf 7d 7b 46 07 6b f6 b5 bf
       -0.05820436159679693 -0.08579129150028382
0006a0 bc ad 9b a0 cb 5e b4 bf 20 b6 59 11 e8 1d bb bf
       -0.0795714633092563 -0.1059250872001134
0006b0 83 16 87 22 ee 08 b3 bf e9 5b a8 61 21 31 b3 bf
       -0.07435501425706019 -0.07496842035503416
0006c0 b7 8f d7 a6 a9 1e a7 bf 00 00 00 00 00 00 00 00
       -0.04515581285139041 0.0
0006d0 00 00 00 00 00 00 00 00 00 00 00 00 00 00 00 00
       0.0 0.0
0006e0 35 12 be 6e a6 e6 47 3f c0 72 9f b3 28 45 84 bf
       0.0007293999346847437 -0.009897535306600758
0006f0 00 00 00 00 00 00 00 00 29 7c 21 a4 98 e1 c7 3f
       0.0 0.1865721513194967
000700 7b 87 1e 9e cd 5e 58 bf 43 6b 76 bc 64 1c c0 bf
       -0.0014874465927978409 -0.12586650087617998
000710 4e 23 94 12 42 ff ab bf 88 0a 70 2c 96 b8 b3 bf
       -0.05468183972158745 -0.07703531823066545
000720 88 0d 9a 60 9d b4 a4 bf be 2e 89 e8 b1 62 b5 bf
       -0.04044048122616589 -0.08353721549172641
000730 36 d2 1b c6 13 51 b2 bf 1d d1 06 0f c7 76 cd bf
       -0.07154964052808385 -0.2301873038646897
000740 92 9c 39 10 ec bc c5 bf 34 00 11 5e bc 54 c6 bf
       -0.16982794563520948 -0.17446093171202082
000750 06 d5 a0 4f f5 01 d3 bf dd 46 c4 36 f8 9c c6 bf
       -0.29699452186771713 -0.17666533159404355
000760 51 25 4c 30 37 1b c9 bf 97 54 f4 fe 64 79 cd bf
       -0.19614305361055043 -0.23026716660448152
000770 51 f6 e4 2c bd 79 d4 bf 8e df a1 35 35 bf c4 bf
       -0.319930356828853 -0.16208520048871516
000780 e8 a5 58 3d b6 8b c6 bf da f9 5d da 58 55 c7 bf
       -0.17613866801666167 -0.18229208624320742
000790 fc 20 29 23 1b 9f c4 bf da a2 60 83 7f fb c1 bf
       -0.16110552994565086 -0.1404876128665567
0007a0 de 03 14 a1 ca 47 d5 bf
       -0.33250680666247756
